cartpole-dqn.pth (torch, 3231 bytes, 4 tensors)

0.weight f4 [64, 4]
0.008145246 0.35776547 0.5739657 0.285905 -0.40641215 -0.14775087 -0.33240926 0.076906405
0.5139112 0.9077892 1.3920823 0.750259 0.5572501 0.8489266 0.8982289 0.58460754
0.5456568 0.5380439 0.8587412 0.47728434 0.2261624 0.50768137 1.0114418 0.4616939
0.0879403 -0.21450385 0.0053239367 -0.15621783 0.012464521 -0.124895036 0.38531792 0.057870757
-0.41242087 -0.38992277 -0.48280516 -0.04401842 0.28211975 -0.29849386 -0.84028596 -0.2882354
-0.23411757 -0.10306785 0.052721877 -0.18655302 0.1978197 0.24464159 0.0789357 0.19951095
0.21922785 0.91469145 1.3403648 0.7715101 0.22857018 0.03815265 -0.07175711 -0.0083276285
0.4637438 1.265528 1.9753574 1.0425264 0.37789273 0.66754055 0.8183464 0.6667343
0.3331935 0.2908889 0.24942414 0.2164614 -0.59370416 -0.67417705 -1.6247458 -0.62802875
0.15696383 0.85451794 0.75948405 0.8168179 0.3097078 0.9376501 1.189883 0.7402677
-0.2834683 -0.15137707 -0.22846416 0.19182663 0.0092167985 -0.59289694 -0.9993578 -0.5566998
0.13410287 0.41933855 0.86356264 0.29178628 -0.29810643 -1.2242675 -1.0143415 -0.93045545
-0.070244044 -0.16170049 0.059877574 -0.01150879 0.19339563 0.06295861 0.74383444 0.08712907
-0.32856748 0.51635516 1.1454768 0.6881949 0.2816513 0.28026363 -0.0038742295 0.3659372
-0.20118022 -0.33121666 -0.9644917 -0.28361624 -0.20504104 -0.918494 -1.5198305 -0.7517027
0.19780575 0.4786917 1.0107943 0.41017637 0.30478898 -0.53360164 -0.91510874 -0.5314115
-0.47349408 -0.680974 -1.3687543 -0.5168432 -0.1802606 0.816049 1.0447351 0.7001545
0.4779309 0.93607175 1.4956669 0.7165947 0.25375146 -0.4224294 -0.08033841 -0.11884758
0.1379991 0.29070204 0.49543363 0.21837085 0.35280785 0.55171025 0.39773932 0.41716075
-0.13750732 -0.62654114 1.1648654 0.9424469 0.14210446 -0.33715212 0.19779836 -0.2732809
0.10181269 -0.800672 -0.6114203 -0.5661076 0.32403785 0.002568847 0.15780641 -0.030153044
0.017776422 -0.08282191 -0.07392982 0.018829752 -0.11934261 -0.6035213 -1.1209624 -0.566856
-0.085373774 -0.1057425 -0.11036142 -0.20664576 -0.05304916 0.26486605 0.624915 0.25656706
-0.22338104 0.39662883 0.40206355 0.6783572 0.4948195 0.5923234 1.3638681 0.55026996
-0.07124486 0.24397372 0.010550765 0.21523657 0.113481835 -0.3359186 -0.6863796 -0.40123743
-0.098698586 -0.019792985 -0.49557996 -0.45541942 -0.25055227 -0.31293082 -0.40815103 -0.23113903
0.34072298 -0.46086478 0.48269898 -0.3300108 0.58278793 0.18610057 -0.38611242 -0.25752345
0.1326564 -0.81055224 -0.5931026 -0.6543625 0.559916 0.9571125 1.7896812 0.8019211
-0.1680967 -0.55127823 -0.6929883 -0.48688218 -0.33772564 -0.5731812 0.064242 0.82708484
-0.019951748 0.63101345 1.0112591 0.5771976 -0.2087628 0.27420935 0.5752912 0.29723877
-0.00067553064 -0.1397872 -0.31665862 0.0052584754 -0.1695065 0.44204515 0.41593644 -0.12727879
-0.46103516 -1.1596411 -0.0911401 0.6368909 -0.2211778 0.8042515 1.0331683 0.7102142
00000000: a373 053c 092d b73e 6bef 123f 2462 923e
00000010: 4115 d0be 014c 17be 8c31 aabe 1b81 9d3d
00000020: af8f 033f df64 683f c12f b23f f910 403f
00000030: f1a7 0e3f 4153 593f 54f2 653f d7a8 153f
00000040: 2ab0 0b3f 3fbd 093f 77d6 5b3f 9d5e f43e
00000050: 1e97 673e 68f7 013f ed76 813f 2563 ec3e
00000060: 0b1a b43d e6a6 5bbe 6b74 ae3b 91f7 1fbe
00000070: fe37 4c3c f8c8 ffbd 6448 c53e e309 6d3d
00000080: d428 d3be f5a3 c7be 3d32 f7be a94c 34bd
00000090: 0072 903e 30d4 98be fb1c 57bf 9793 93be
000000a0: 84bc 6fbe 3d15 d3bd e5f2 573d c107 3fbe
000000b0: 3f91 4a3e 5383 7a3e 0aa9 a13d 994c 4c3e
000000c0: 447d 603e 3829 6a3f 1391 ab3f b081 453f
000000d0: 4d0e 6a3e f445 1c3d 64f5 92bd 9b70 08bc
000000e0: d46f ed3e d2fc a13f 83d8 fc3f 8171 853f
000000f0: 287b c13e f0e3 2a3f 267f 513f 19af 2a3f
00000100: 5798 aa3e 64ef 943e 0b69 7f3e 0fa8 5d3e
00000110: fffc 17bf de96 2cbf acf7 cfbf 7ec6 20bf
00000120: 20bb 203e b0c1 5a3f 8c6d 423f fa1a 513f
00000130: 0592 9e3e d609 703f 164e 983f 2f82 3d3f
00000140: c222 91be 9702 1bbe 82f2 69be 336e 443e
00000150: 0e02 173c 18c8 17bf ead5 7fbf e183 0ebf
00000160: 4352 093e 8bb3 d63e 7112 5d3f 0365 953e
00000170: 68a1 98be ccb4 9cbf f1d5 81bf 5432 6ebf
00000180: 1cdc 8fbd d094 25be 3042 753d 5d8f 3cbc
00000190: 8109 463e 72f0 803d ef6b 3e3f ba70 b23d
000001a0: ff39 a8be da2f 043f fc9e 923f 8a2d 303f
000001b0: 9934 903e b77e 8f3e c9e6 7dbb 1f5c bb3e
000001c0: 3002 4ebe 3b95 a9be eee8 76bf 2636 91be
000001d0: 47f6 51be 6c22 6bbf ce89 c2bf 976f 40bf
000001e0: 978d 4a3e 1417 f53e b561 813f a302 d23e
000001f0: 4d0d 9c3e 1e9a 08bf 9144 6abf 960a 08bf
00000200: d16d f2be 5054 2ebf 5733 afbf d64f 04bf
00000210: 3c96 38be 96e8 503f e1b9 853f 533d 333f
00000220: 5cb3 f43e 66a2 6f3f 0372 bf3f c072 373f
00000230: b6eb 813e ab48 d8be 7788 a4bd 5c66 f3bd
00000240: a34f 0d3e e6d6 943e 7aa9 fd3e 9c9c 5f3e
00000250: 3ba3 b43e e23c 0d3f 7da4 cb3e 1896 d53e
00000260: b8ce 0cbe 0065 20bf 4f1a 953f 3344 713f
00000270: d583 113e 349f acbe a78b 4a3e 79eb 8bbe
00000280: 2c83 d03d d7f8 4cbf 0a86 1cbf 6dec 10bf
00000290: 4ae8 a53e 1a5a 283b 0198 213e 8403 f7bc
000002a0: dc9f 913c 899e a9bd 8468 97bd da40 9a3c
000002b0: e669 f4bd 5f80 1abf b27b 8fbf 7a1d 11bf
000002c0: 72d8 aebd 868f d8bd 2b05 e2bd f29a 53be
000002d0: 134a 59bd 869c 873e 6efa 1f3f c25c 833e
000002e0: 00be 64be ef12 cb3e 46db cd3e d1a8 2d3f
000002f0: fb58 fd3e 82a2 173f 3b93 ae3f 7ede 0c3f
00000300: d3e8 91bd 3fd4 793e 1edd 2c3c fa66 5c3e
00000310: 2a69 e83d 86fd abbe 93b6 2fbf fe6e cdbe
00000320: 7c22 cabd e624 a2bc a8bc fdbe bc2c e9be
00000330: 6348 80be 7838 a0be 2cf9 d0be b6af 6cbe
00000340: 3e73 ae3e 78f6 ebbe 5224 f73e 2df7 a8be
00000350: 9731 153f 2691 3e3e 87b0 c5be 1dda 83be
00000360: 14d7 073e 5a80 4fbf 92d5 17bf 4d84 27bf
00000370: a856 0f3f 5305 753f 4614 e53f b44a 4d3f
00000380: 8b21 2cbe 9220 0dbf ae67 31bf 9f48 f9be
00000390: 60ea acbe 01bc 12bf 4f91 833d d5bb 533f
000003a0: d971 a3bc 198a 213f f070 813f 39c3 133f
000003b0: eac5 55be 2b65 8c3e 4946 133f ae2f 983e
000003c0: 1816 31ba 6024 0fbe 1421 a2be 4a4f ac3b
000003d0: 1d93 2dbe be53 e23e 9ff5 d43e 5f55 02be
000003e0: cd0c ecbe 1f6f 94bf a9a7 babd 480b 233f
000003f0: 6f7c 62be 6de3 4d3f dc3e 843f 99d0 353f

0.bias f4 [64]
-1.1663542 -0.34044108 0.7113085 -1.100797 0.72601473 0.9179702 1.0986559 0.036583472
0.8902703 0.76992637 -0.040989876 -0.8395289 0.71358895 0.7852407 0.76288426 -0.80613893
-0.8860648 1.0422672 -0.79659367 -1.0244538 0.28336772 -1.0137331 -0.97748923 -0.84150237
0.5609408 -1.1163671 0.83421826 -0.056051306 0.84809124 1.013767 -1.1296653 -1.042485
1.0915557 -0.8182725 0.677009 -0.5145303 -0.9269538 1.0747805 -0.058039427 -0.99317586
0.65848297 -0.9644365 -0.013019896 -1.0609622 0.82747847 0.9587537 -0.57185084 0.7882023
0.8204185 0.34429458 0.31954932 0.8891288 0.002325409 -0.1836455 1.0095488 0.77756083
-0.94521236 -0.20023824 0.94594437 0.9236198 -0.61174446 0.14999379 0.0016568158 -0.95406777
00000000: 184b 95bf 4b4e aebe 5018 363f ebe6 8cbf
00000010: 1adc 393f 1800 6b3f c2a0 8c3f 8dd8 153d
00000020: c1e8 633f e519 453f 00e5 27bd 5eeb 56bf
00000030: c4ad 363f 8905 493f 624c 433f 1f5f 4ebf
00000040: 25d5 62bf 0369 853f 90ed 4bbf 4d21 83bf
00000050: 9315 913e 02c2 81bf bc3c 7abf b36c 57bf
00000060: d199 0f3f 1ee5 8ebf 548f 553f 0e96 65bd
00000070: 821c 593f 1ec3 813f df98 90bf 2670 85bf
00000080: 19b8 8b3f 4e7a 51bf 7650 2d3f 42b8 03bf
00000090: d84c 6dbf 6892 893f c0ba 6dbd c640 7ebf
000000a0: 5792 283f 4fe5 76bf 6751 55bc 9ccd 87bf
000000b0: a1d5 533f e270 753f d164 12bf a0c7 493f
000000c0: f206 523f 6147 b03e f89b a33e f29d 633f
000000d0: e465 183b 910d 3cbe e538 813f 3a0e 473f
000000e0: 70f9 71bf 410b 4dbe 6929 723f 5972 6c3f
000000f0: 499b 1cbf f997 193e 8329 d93a c93d 74bf

2.weight f4 [2, 64]
-0.48991054 -0.15621078 0.66095686 -0.55190396 0.64025503 0.42345676 0.49317846 -0.0054543563
0.3526635 0.77287686 -0.05611257 -0.67846006 0.64917505 0.3416663 0.60360324 -0.8166373
-0.4923508 0.62832135 -0.7316389 -0.69913685 0.14091593 -0.5400454 -0.47084033 -0.44191918
0.34769493 -0.5416123 0.41203237 -0.3033582 0.6549749 0.640964 -0.51900876 -0.55799633
0.56224895 -0.5191408 0.43168756 -0.35628822 -0.5958481 0.49934912 0.20628342 -0.5774992
0.44287091 -0.43610418 -0.042436235 -0.492827 0.5468245 0.5326804 -0.4807781 0.6269908
0.6905887 0.5091432 0.21974221 0.5971818 -0.07660456 0.104405195 0.5580716 0.4077352
-0.59814733 0.3520582 0.37145922 0.6457482 -0.4046995 0.07105904 -0.28388983 -0.6487199
-0.52025205 -0.057082698 0.66004777 -0.6281836 0.5175688 0.5209876 0.6201076 0.051857546
0.47024035 0.39573365 -0.11090576 -0.59149545 0.55112135 0.5965499 0.60669696 -0.47675303
-0.5020366 0.4905565 -0.5280088 -0.68224823 0.119775265 -0.6410217 -0.5655026 -0.60827714
0.5146133 -0.5234747 0.57724243 0.26884747 0.6417894 0.626605 -0.59655875 -0.5771603
0.6412768 -0.54529524 0.55545163 -0.048080374 -0.60064125 0.6022195 0.13576198 -0.50455844
0.39228487 -0.56930643 0.0034207476 -0.5313695 0.46976575 0.62113744 -0.409258 0.5699694
0.6305427 0.061218213 0.104960226 0.6454425 -0.013855815 -0.2523485 0.61894107 0.60915005
-0.6294332 0.05494739 0.49970034 0.5341787 -0.22832048 0.010260198 -0.3367355 -0.63302076
00000000: 8ed5 fabe b8f5 1fbe 7834 293f 9449 0dbf
00000010: c1e7 233f 53cf d83e e381 fc3e 75ba b2bb
00000020: 4f90 b43e 42db 453f 4bd6 65bd 8faf 2dbf
00000030: 5630 263f e3ee ae3e be85 1a3f 240f 51bf
00000040: 6715 fcbe abd9 203f b04c 3bbf a2fa 32bf
00000050: 444c 103e 6a40 0abf fc11 f1be 3b43 e2be
00000060: 1205 b23e 1ba7 0abf e8f5 d23e c451 9bbe
00000070: 6fac 273f 3716 243f c2dd 04bf d9d8 0ebf
00000080: 8cef 0f3f 69e6 04bf 2706 dd3e 696b b6be
00000090: 8089 18bf b0aa ff3e f63b 533e fdd6 13bf
000000a0: fabf e23e 0c49 dfbe 9ed1 2dbd d253 fcbe
000000b0: b1fc 0b3f be5d 083f 8c28 f6be 7882 203f
000000c0: 6cca 303f 3557 023f 1a04 613e e8e0 183f
000000d0: dae2 9cbd 64d2 d53d c8dd 0e3f abc2 d03e
000000e0: 2f20 19bf f940 b43e e72f be3e c14f 253f
000000f0: c634 cfbe 6787 913d 025a 91be 8212 26bf
00000100: 3d2f 05bf 8ccf 69bd e4f8 283f a4d0 20bf
00000110: 647f 043f 715f 053f 5fbf 1e3f 9468 543d
00000120: 58c3 f03e 9a9d ca3e 8f22 e3bd 3f6c 17bf
00000130: 4a16 0d3f 7fb7 183f 7e50 1b3f f918 f4be
00000140: 7885 00bf 392a fb3e 962b 07bf d2a7 2ebf
00000150: bc4c f53d 001a 24bf c7c4 10bf 0db8 1bbf
00000160: b2bd 033f 7002 06bf 29c6 133f 60a6 893e
00000170: 4f4c 243f 2f69 203f 13b8 18bf c7c0 13bf
00000180: b72a 243f 7898 0bbf 1432 0e3f edef 44bd
00000190: a0c3 19bf 0f2b 1a3f 3005 0b3e be2a 01bf
000001a0: 90d9 c83e 11be 11bf 9f2e 603b d507 08bf
000001b0: 2385 f03e dd02 1f3f 448a d1be 84e9 113f
000001c0: 3f6b 213f f3bf 7a3d 63f5 d63d b83b 253f
000001d0: 8003 63bc d333 81be ec72 1e3f 42f1 1b3f
000001e0: 8922 21bf 8410 613d b9d8 ff3e efbf 083f
000001f0: d8cc 69be 641a 283c 9868 acbe a60d 22bf

2.bias f4 [2]
0.50996286 0.39595017
00000000: ed8c 023f fbb9 ca3e
